models/stanford_cars_resnet18_head_subset.onnx (onnx, 59046 bytes, 5 tensors)

input_bias f4 [64]
000000 15 9a 4b 3e d8 f4 be 3e c2 7f 8d b5 bc ed 10 3e
       0.19882996 0.37296176 -1.0542501e-06 0.14153188
000010 67 57 8e b2 2e de 1c 3e fb ec a8 3e 96 ef e6 b4
       -1.6570722e-08 0.1531913 0.32993302 -4.301516e-07
000020 98 9f b1 3e 83 6b 06 b7 a5 37 25 3e 2f 4e 18 3e
       0.34692073 -8.012054e-06 0.16134508 0.14873575
000030 2c f3 84 3e 6d b8 10 b8 21 b2 bb 3d 52 e3 08 3e
       0.25966775 -3.4504035e-05 0.09164835 0.13367966
000040 b8 ab 39 3d c2 af 95 bf 23 38 a4 bf d9 43 5a 3f
       0.04532978 -1.1694262 -1.2829632 0.8525978
000050 1e 41 f2 3e 8a 6e 23 3e 50 c8 43 3f 84 39 ff 3e
       0.47315305 0.15960136 0.7647753 0.49848568
000060 1d 95 50 3e 24 cd a4 3d ea 22 21 3e 86 b1 89 3d
       0.20369382 0.0804694 0.15735975 0.06723313
000070 a7 cd e9 3e 8e 72 c9 3e ff 76 01 3e 90 84 04 3e
       0.45664713 0.3934521 0.1264305 0.12941194
000080 e4 de ce 3d ca 46 88 3e 80 4b 6b bf 37 1f ec 3e
       0.10101107 0.26616508 -0.9191208 0.46117565
000090 70 90 83 b4 f8 d3 0f 3d 4b 1a 53 b3 0a 26 3a 3e
       -2.4505744e-07 0.03511426 -4.915118e-08 0.18178573
0000a0 b7 4d 77 3e 84 55 44 3e 17 e1 18 3f da 12 01 3e
       0.2415074 0.19173247 0.5971846 0.12604848
0000b0 ec 5e af 3d 70 f8 88 3f 40 85 d2 3d 3a e7 ff 3d
       0.08563027 1.0700817 0.10279322 0.12495275
0000c0 96 a3 ba b3 09 d3 b8 3e a6 f3 a8 3e 50 21 6f 3f
       -8.691056e-08 0.36098507 0.3299839 0.93410206
0000d0 f7 6a c8 3e 47 bd 23 3e 14 dc 19 3e 2f e3 11 3f
       0.39144108 0.15990172 0.1502536 0.5698728
0000e0 14 5a 7b 3e e8 bc ee 3d dd fd a6 3e ee f7 5e 3e
       0.24546081 0.11657125 0.32615557 0.21774265
0000f0 62 fe 5a 3f c8 b5 15 3e 05 37 a2 3e a4 04 a0 3e
       0.8554441 0.14620125 0.31682602 0.3125354

max_pool2d_bias f4 [64]
000000 02 fd b8 3e 95 01 9a 3e 66 ac 26 3e c3 bd b7 3e
       0.3613053 0.30079332 0.16276702 0.35886964
000010 5e b5 28 3f 7e a4 f5 3e 2b e7 b2 3e 17 df 0c 3e
       0.65901744 0.4797706 0.34941992 0.13756977
000020 08 28 04 3f 7b 8b 91 3e 76 b5 df 3d 70 96 69 3f
       0.5162358 0.28426728 0.10923283 0.91245174
000030 3d e8 28 3e a4 c7 b0 3e c2 66 a8 3e 01 ac a4 3e
       0.16494842 0.34527314 0.32890898 0.3216248
000040 db 61 1b 3f 90 84 44 3d 7a fb 3d 3f e2 13 a2 3e
       0.6069619 0.047977984 0.7421185 0.31655794
000050 8e c5 f0 3e 64 cb 38 3f a4 b2 48 3f 7d 99 e5 3e
       0.47025722 0.7218535 0.78397584 0.44843665
000060 fe b2 34 3e 68 29 45 3e f4 69 6e bd 5f 72 41 3f
       0.17646405 0.19254076 -0.058206514 0.7556514
000070 9c 39 b4 3c 00 7b 8c be a6 eb 25 be 65 df 6e 3f
       0.022000127 -0.27437592 -0.16203174 0.93309623
000080 f8 1a 02 3f b6 83 97 3f 62 5e 5f 3f 92 b6 29 3f
       0.508224 1.183707 0.8725339 0.66294205
000090 6a 90 f4 3e 5e 90 c3 3d 77 d0 a0 3f 9e 78 54 3f
       0.4776643 0.0954902 1.2563618 0.8299655
0000a0 c8 b5 38 3e 8d ea 24 3f 7a e9 1b be dc 2a 08 bf
       0.18038094 0.64420396 -0.15225783 -0.531904
0000b0 e2 3d c4 3e 5a 38 02 3f e2 5d 90 3f f7 08 7c 3f
       0.38328463 0.50867236 1.1278651 0.9845118
0000c0 ee 5e 85 3f 02 db 6c 3f 41 26 1f 3f f5 10 92 3f
       1.0419595 0.9252168 0.62167746 1.1411425
0000d0 86 e7 cc 3e e5 a7 3d 3f 9f 06 82 3f c5 a5 21 bf
       0.40020388 0.7408431 1.0158271 -0.6314357
0000e0 35 31 2b 3f 05 35 86 3e c0 18 0e 3f b8 6b dd 3d
       0.6687196 0.26212326 0.55506516 0.10811561
0000f0 62 f7 b3 3e 9e 18 5d 3f e0 4d 47 bf e9 37 04 3f
       0.35149676 0.8636569 -0.778532 0.5164781

relu_1_bias f4 [64]
000000 3c d3 ce 3d 6e 8e b4 3b e2 28 87 bf 7f 02 ba be
       0.100988835 0.005510143 -1.0559351 -0.3633003
000010 7c e0 b9 3d 02 47 10 be 79 cd 36 3d e0 5d 54 3c
       0.0907602 -0.14089587 0.044629548 0.012961835
000020 be fc 71 3f fd 5b 7b bd 3c 2a b8 3d 76 9b 00 3f
       0.9452628 -0.061367024 0.089924306 0.50237215
000030 7d 46 b0 3d 43 61 f2 bd 90 29 84 3b 85 08 2e 3e
       0.086071946 -0.118349575 0.004033275 0.16995437
000040 50 3e 0a bd 65 d5 23 be f7 51 80 be 2e 36 c9 be
       -0.033750832 -0.15999372 -0.25062534 -0.39299148
000050 ce 12 0c bf a6 9f 17 3e 84 05 ae be 02 6c 14 3e
       -0.54716194 0.14806995 -0.33988583 0.14494327
000060 ec f1 08 bd 63 6f 26 3f 7a 15 bf bc 42 05 9c bd
       -0.03343384 0.6501371 -0.02332567 -0.0761819
000070 40 29 59 3e 4c 2b 48 3e c3 36 ec 3e 0d 2c 85 3e
       0.21207142 0.19547766 0.4613553 0.2601017
000080 30 1f 7f 3c 8d b7 b5 3e 50 01 ed 3d a4 cc 7a bd
       0.0155714005 0.354916 0.11572516 -0.061230317
000090 23 a5 41 bf 18 a8 fa 3e 32 d7 b9 3e d1 0b 0a 3f
       -0.75642604 0.4895637 0.36296993 0.5392428
0000a0 06 01 c3 3e 8a 1e fa 3d b4 31 16 3d 98 8a c9 3d
       0.38086718 0.12212856 0.036668494 0.09840888
0000b0 69 75 5c be d0 48 c9 bc ee 6a db 3f c6 93 32 bd
       -0.21529163 -0.024570853 1.7142007 -0.04359796
0000c0 be bd de 3b 62 5a 52 3e 62 3c 38 3f 40 2a 02 be
       0.0067975214 0.20542291 0.71967137 -0.1271143
0000d0 40 17 a4 3d b7 5b 82 3e e3 05 c9 be 3d 60 84 3e
       0.08012247 0.25460598 -0.39262304 0.25854674
0000e0 1e 4e 0a 3e 20 68 0c be ef 0b b5 3e 97 24 91 be
       0.13506362 -0.13711596 0.35360667 -0.28348228
0000f0 92 e4 39 bd 73 2e 48 3e 84 11 71 be ff 9c 96 3e
       -0.045383997 0.19548969 -0.23541838 0.29416654

relu_2_bias f4 [64]
000000 0a bb 40 3e 0c a0 79 bf 10 97 19 3f 92 65 0e 3e
       0.1882135 -0.9750984 0.5999613 0.13905933
000010 a7 02 87 3e 94 87 3d 3f 53 9d 50 3e 8a d3 4a 3d
       0.2636921 0.74035 0.20372514 0.049518146
000020 fb a0 69 3e cd 53 94 3e 84 b1 c1 3e 6e 15 60 3e
       0.22815315 0.28970185 0.37830746 0.21883175
000030 d2 ed 3a 3f eb f6 9d 3e ae 98 86 bd f7 be f7 bd
       0.73019135 0.30852446 -0.0657209 -0.120969705
000040 66 9e 65 3e 60 d3 35 3d c9 a4 2e 3f 12 72 37 3e
       0.22423705 0.044391036 0.6822019 0.17914608
000050 ec 62 6c be 6e e8 41 3f e6 00 2b 3f d2 5f 3c bd
       -0.2308461 0.75745285 0.66798246 -0.04598982
000060 b0 37 4f be 0c 8b 19 3f de bb 58 3f f1 c4 d3 3e
       -0.20236087 0.59977794 0.8466166 0.41361192
000070 d8 8c ef be d0 de ed 3c ba 1d e6 be 1c 81 7f 3f
       -0.46787143 0.02903691 -0.44944555 0.9980638
000080 e1 7f d7 3e 20 b2 92 bc 96 c1 4b 3f f0 c2 84 3f
       0.4208975 -0.017907202 0.79592264 1.037199
000090 60 8c 57 3b 9e 87 bd bd 81 c7 94 3e c4 a6 1e 3f
       0.0032890067 -0.092543826 0.2905846 0.61973214
0000a0 84 ef 40 bf 93 53 ca 3d 41 70 e5 be c1 28 ef 3e
       -0.7536547 0.09879222 -0.44812205 0.4671078
0000b0 21 34 05 3f 62 09 ba 3d 86 cc d5 bd bd 89 92 bd
       0.5203267 0.09083821 -0.104394004 -0.07155178
0000c0 d0 12 69 bf 78 4b a8 3e 6c 1a 93 bc 8c 87 20 3f
       -0.9104433 0.32870078 -0.017956935 0.6270683
0000d0 cb f4 00 3e 5f 7e a5 3e 6e bf 47 3f e3 d7 c1 3d
       0.12593381 0.32322976 0.78026474 0.09465005
0000e0 b3 e3 c0 3e 39 bf 9b 3e dc 84 ee 3c d3 55 51 3f
       0.3767372 0.3041933 0.029116087 0.8177158
0000f0 94 85 0c 3f 68 b6 df bb 3e 04 32 bf c2 ce 0e 3f
       0.54891324 -0.0068271644 -0.69537723 0.5578424

relu_3_bias f4 [64]
000000 f7 32 bf bd c7 4a 48 3e fa 4e a1 bf d0 f1 14 3c
       -0.09335893 0.19559775 -1.2602227 0.009090856
000010 c2 c8 fa bd ea d3 38 bd 26 9f a1 be 35 62 74 be
       -0.12245323 -0.045123972 -0.31566733 -0.23865588
000020 0e 8a 2e 3f 8d 56 bd 3e 8a 62 66 be b6 b6 b1 3c
       0.68179405 0.36980096 -0.22498527 0.021693569
000030 c7 c5 10 be 6a 11 86 3f a4 38 7a be 76 ff 64 3d
       -0.14137946 1.0474064 -0.24435669 0.05590769
000040 92 d9 d9 3d 9e e8 76 3e c5 df 8b be 5c e6 c1 bb
       0.10637201 0.24112174 -0.2731916 -0.0059173536
000050 30 d3 3f bc 19 cd 15 be 10 a1 2a bd fc de 57 bd
       -0.011708066 -0.1462902 -0.041657507 -0.05270289
000060 32 42 72 be d8 a6 df 3d 93 c8 9c 3d 76 4a 42 3e
       -0.23658064 0.10920495 0.07655444 0.18973717
000070 54 bf 86 3f 11 4f 1d 3d f2 fd bb 3d 6e d9 43 3e
       1.0527139 0.03840548 0.091792956 0.19125912
000080 4c 57 33 3f c0 a6 a7 bd 5a 88 3e 3f 70 09 14 be
       0.7005508 -0.08186102 0.74426806 -0.14456725
000090 22 bc 62 3f 02 a9 a6 3e b0 dc 25 3f af 2e 2d 3e
       0.8856832 0.32550818 0.6478987 0.1691234
0000a0 b8 f7 48 3d 09 cc 89 be 92 37 06 be b4 bb df 3e
       0.049064368 -0.2691348 -0.13107136 0.43697894
0000b0 9a 0e 0b 3f c5 73 3b 3e bf 7a f8 3e 18 1f 1e bd
       0.54319155 0.18305881 0.48531148 -0.038603872
0000c0 43 5f 93 3e c4 c1 01 3f f4 40 db 3d a8 3d 3e be
       0.28783616 0.5068629 0.10705748 -0.18578207
0000d0 1e 98 56 3e d4 3c 68 bd 8e ca 39 3d d2 c7 ff be
       0.20956466 -0.056698635 0.045359187 -0.49957138
0000e0 a8 b9 80 be 7f f2 3f 3e dc 8d 08 3e a2 89 97 be
       -0.25141644 0.18744849 0.13335365 -0.29597193
0000f0 8e 4c 1a be 34 13 57 3d ee a5 d7 3c e9 a9 8a be
       -0.15068266 0.052508548 0.026324239 -0.27082756
